Model: "model"
_________________________________________________________________
Layer (type)                 Output Shape              Param #   
=================================================================
input_1 (InputLayer)         [(None, 28, 28)]          0         
_________________________________________________________________
lambda (Lambda)              (None, 28, 28, 3)         0         
_________________________________________________________________
lambda_1 (Lambda)            (None, 48, 48, 3)         0         
_________________________________________________________________
vgg16 (Model)                (None, 1, 1, 512)         14714688  
_________________________________________________________________
flatten (Flatten)            (None, 512)               0         
_________________________________________________________________
dense (Dense)                (None, 1024)              525312    
_________________________________________________________________
dense_1 (Dense)              (None, 80)                82000     
=================================================================
Total params: 15,322,000
Trainable params: 607,312
Non-trainable params: 14,714,688
_________________________________________________________________
Epoch 1/16
2020-04-05 16:38:01.261703: E tensorflow/core/grappler/optimizers/dependency_optimizer.cc:697] Iteration = 0, topological sort failed with message: The graph couldn't be sorted in topological order.
…
