Model: "sequential"
_________________________________________________________________
Layer (type)                 Output Shape              Param #   
=================================================================
lambda (Lambda)              (None, 28, 28, 1)         0         
_________________________________________________________________
conv2d (Conv2D)              (None, 26, 26, 64)        640       
_________________________________________________________________
max_pooling2d (MaxPooling2D) (None, 13, 13, 64)        0         
_________________________________________________________________
dropout (Dropout)            (None, 13, 13, 64)        0         
_________________________________________________________________
conv2d_1 (Conv2D)            (None, 11, 11, 128)       73856     
_________________________________________________________________
max_pooling2d_1 (MaxPooling2 (None, 5, 5, 128)         0         
_________________________________________________________________
dropout_1 (Dropout)          (None, 5, 5, 128)         0         
_________________________________________________________________
conv2d_2 (Conv2D)            (None, 3, 3, 256)         295168    
_________________________________________________________________
flatten (Flatten)            (None, 2304)              0         
_________________________________________________________________
dropout_2 (Dropout)          (None, 2304)              0         
_________________________________________________________________
dense (Dense)                (None, 80)                184400    
=================================================================
Total params: 554,064
Trainable params: 554,064
Non-trainable params: 0
_________________________________________________________________
2020-04-05 21:19:15.398570: I tensorflow/core/platform/cpu_feature_guard.cc:142] Your CPU supports instructions that this TensorFlow binary was not compiled to use: AVX2 FMA
2020-04-05 21:19:15.415234: I tensorflow/stream_executor/platform/default/dso_loader.cc:42] Successfully opened dynamic library libcuda.so.1
…
