Model: "sequential"
_________________________________________________________________
Layer (type)                 Output Shape              Param #   
=================================================================
lambda (Lambda)              (None, 28, 28, 1)         0         
_________________________________________________________________
conv2d (Conv2D)              (None, 28, 28, 64)        640       
_________________________________________________________________
max_pooling2d (MaxPooling2D) (None, 14, 14, 64)        0         
_________________________________________________________________
dropout (Dropout)            (None, 14, 14, 64)        0         
_________________________________________________________________
conv2d_1 (Conv2D)            (None, 14, 14, 128)       73856     
_________________________________________________________________
max_pooling2d_1 (MaxPooling2 (None, 7, 7, 128)         0         
_________________________________________________________________
dropout_1 (Dropout)          (None, 7, 7, 128)         0         
_________________________________________________________________
conv2d_2 (Conv2D)            (None, 7, 7, 256)         295168    
_________________________________________________________________
flatten (Flatten)            (None, 12544)             0         
_________________________________________________________________
dropout_2 (Dropout)          (None, 12544)             0         
_________________________________________________________________
dense (Dense)                (None, 80)                1003600   
=================================================================
Total params: 1,373,264
Trainable params: 1,373,264
Non-trainable params: 0
_________________________________________________________________
2020-04-05 22:26:59.972586: I tensorflow/core/platform/cpu_feature_guard.cc:142] Your CPU supports instructions that this TensorFlow binary was not compiled to use: AVX2 FMA
2020-04-05 22:27:00.016384: I tensorflow/stream_executor/platform/default/dso_loader.cc:42] Successfully opened dynamic library libcuda.so.1
…
